visualization_and_model/Ransomware.pt (torch_old, 450811 bytes, 7 tensors)

weight f4 [256, 100]
0	0x3ad92745	0.0016567489
1	0xbf16bf48	-0.5888562
2	0xbdf2991f	-0.11845612
3	0x3fb84468	1.4395876
4	0xc00f31a5	-2.237405
5	0xbf4bbdf8	-0.79586744
6	0xbef7355d	-0.482829
7	0x3edc9645	0.43083397
8	0x3e21428d	0.15748043
9	0x3f8d16ff	1.1022643
10	0x3f594947	0.8487744
11	0x3f7fafce	0.9987763
12	0x3f4953bf	0.7864341
13	0x3e8d06bb	0.27544197
14	0xbf00c2de	-0.50297344
15	0xbf91894c	-1.1370025
16	0x3f503eb4	0.8134568
17	0x3f89f55e	1.0778005
18	0x3e32230a	0.17396179
19	0xbe1797d5	-0.14804013
20	0x3f050dee	0.5197438
21	0x3f9e492e	1.2366083
22	0x3f54bc8f	0.8310022
23	0xbf1a4378	-0.602592
24	0xbeed6008	-0.4636233
25	0xbf29f0ed	-0.6638325
26	0xbf2fca6b	-0.6866824
27	0x3e8b4016	0.2719733
28	0xbf4eefa5	-0.8083442
29	0x3d00fb8a	0.031489886
30	0xbf8777ca	-1.0583432
31	0x3f1a7764	0.60338426
32	0x3d98974e	0.07450734
33	0x3fab4389	1.3379985
34	0xbfc50ac8	-1.5393915
35	0x3f187307	0.5955052
36	0x3f0d849d	0.55280477
37	0xbebfe3b4	-0.3747841
38	0xbf0c7d3f	-0.5487861
39	0xbfe0a419	-1.7550079
40	0xbfa5f8bb	-1.2966532
41	0x3fabb99b	1.3416017
42	0xbf2fbed8	-0.6865058
43	0xbe8a6b4a	-0.2703498
44	0xbea76cca	-0.32700187
45	0x3f2c47d3	0.67297095
46	0xbf2c6f5f	-0.6735744
47	0x3f7d504c	0.9895065
48	0x3f5b8f79	0.85765797
49	0x3f5c37ab	0.8602244
50	0x3ee92f25	0.4554378
51	0x3e0c0730	0.13674617
52	0x3f664e9f	0.89963716
53	0xbe80c2a3	-0.25148496
54	0x3f6f4d0a	0.9347693
55	0xbfdcb9a7	-1.7244157
56	0x3f1a9ca5	0.6039527
57	0xbef5ac55	-0.4798304
58	0xbe5128c5	-0.20425709
59	0x3f3d4b03	0.73942584
60	0xbf063dfa	-0.5243832
61	0xbd232fa0	-0.03984034
62	0xbf35da32	-0.71036065
63	0xbe89277f	-0.26787946
64	0xbdf92cd5	-0.12166754
65	0x3edde2dc	0.43337142
66	0xbfc6a7a9	-1.5519916
67	0x3f727781	0.947136
68	0x3ee8952e	0.45426315
69	0xbfc98f8b	-1.5746931
70	0x3f5faa53	0.8736927
71	0xbe155313	-0.14582472
72	0xbf073fb8	-0.528316
73	0x3f9b4c7d	1.2132717
74	0xc02b8e5e	-2.6805644
75	0xbf1ad04d	-0.6047409
76	0x3fddee5b	1.7338365
77	0xbf5fc65a	-0.87412035
78	0xbeb230f7	-0.34802982
79	0xbf06a75e	-0.5259913
80	0x3e4ef99b	0.20212404
81	0xbd4779e6	-0.048700236
82	0xbf2a296e	-0.66469467
83	0xbf8d207a	-1.1025536
84	0x3f7d615f	0.989767
85	0x3ef7668c	0.48320425
86	0xbd039621	-0.032125596
87	0xc00096a3	-2.0091941
88	0xbf693d80	-0.91109467
89	0xbe16a800	-0.14712524
90	0xbee1bcb5	-0.44089285
91	0xbf61073e	-0.87901676
92	0xbf044406	-0.51666296
93	0x3f83af08	1.028779
94	0x3f2d21c8	0.6762967
95	0x3f8660d8	1.0498304
96	0x3ece15f2	0.40251118
97	0xbec3e543	-0.3826085
98	0x3dba72ed	0.091039516
99	0x3f632753	0.8873188
100	0xbf48d70a	-0.78453124
101	0x3f4f0b29	0.80876404
102	0x3f98629f	1.1905097
103	0xbe857c74	-0.26071513
104	0xbfd68bce	-1.6761415
105	0x3f9945b4	1.1974397
106	0xbee5a490	-0.44852114
107	0xbcef4868	-0.02920933
108	0x3f5241e6	0.82131803
109	0x3f53799e	0.8260745
110	0xbf43e158	-0.7651572
111	0x3f12915e	0.5725306
112	0xbfd42b00	-1.6575623
113	0xbf68c8d8	-0.90931463
114	0xbf2c5ef7	-0.67332405
115	0xbe2e6300	-0.17029953
116	0x3e89d0c9	0.26917103
117	0x3e4fad1c	0.2028088
118	0xbf22cdd1	-0.635953
119	0xbf168d04	-0.5880892
120	0x3f897b01	1.0740663
121	0x3f3f3264	0.74686265
122	0xbf37d319	-0.71806484
123	0xbcaa5a86	-0.020795118
124	0x3e527853	0.20553713
125	0xbe53981e	-0.20663497
126	0xbe08d113	-0.13361005
127	0xbf4c5d6a	-0.7983004
128	0x3e0fe0fd	0.1405067
129	0x3e8bd720	0.27312565
130	0xbfa3437f	-1.2754973
131	0x3f9204bc	1.1407695
132	0x3f3f7e86	0.74802434
133	0xc0032215	-2.0489552
134	0xc0084863	-2.1294181
135	0xbf816644	-1.0109334
136	0x3f958fad	1.1684471
137	0xbf75968c	-0.9593284
138	0xbe2d41bd	-0.16919608
139	0xbed37e1e	-0.41307157
140	0xbe7389f2	-0.2378309
141	0xbf06ab97	-0.52605575
142	0x3f67a8c5	0.90491897
143	0x3dcdacd7	0.10042732
144	0xbe9fa47a	-0.31180173
145	0xbea8c6e1	-0.32964233
146	0x3f277699	0.6541534
147	0xbe579a6a	-0.21054998
148	0x3ea1d48f	0.31607482
149	0xbf65988f	-0.8968591
150	0xc01a914a	-2.4151177
151	0x3f092692	0.5357448
152	0xbd9d9ef2	-0.07696332
153	0xbe866fbf	-0.2625713
154	0x3f5da8b8	0.8658557
155	0xbe179c5c	-0.1480574
156	0x3fcd6356	1.604594
157	0xbe86e7de	-0.26348776
158	0x3f92dbb1	1.1473294
159	0x3eebcebf	0.46056172
160	0xc0076075	-2.1152623
161	0xbfb81d39	-1.4383918
162	0xbec51df3	-0.38499412
163	0xbd6a4c19	-0.05720148
164	0x3ec65134	0.38733828
165	0xbec10187	-0.37696478
166	0x3f8796fd	1.0592953
167	0xbeb7b44a	-0.35879737
168	0xbf0b3fa9	-0.5439401
169	0x3e31e932	0.17374113
170	0x3f89e01d	1.0771519
171	0x3ea8b6c5	0.32951942
172	0xbe77f7a9	-0.24215569
173	0xbf62c489	-0.8858114
174	0x3eecd148	0.4625342
175	0x3ff6d7b3	1.9284576
176	0x3c41d8c7	0.011831469
177	0x3ecafa12	0.39643914
178	0x3fbe187b	1.4851221
179	0xbf17d962	-0.59316075
180	0x3e84e18e	0.25953335
181	0x3f83cc8a	1.0296795
182	0x3df4a543	0.11945584
183	0x3e2913c4	0.16511446
184	0x3f89bdde	1.0761068
185	0x3e2c4ead	0.16826887
186	0xbe88537f	-0.26626202
187	0x3ee80d95	0.45322862
188	0xbf5a7ce1	-0.853468
189	0x3fa34984	1.275681
190	0x3e90cfdd	0.28283587
191	0xbecff41d	-0.4061593
192	0xbf99b3da	-1.2008011
193	0xbe91164e	-0.2833733
194	0x3fe7b5a7	1.8102311
195	0x3df56d2d	0.11983714
196	0xbeb7cb60	-0.3589735
197	0x3eddf923	0.4335414
198	0x3ec41f1d	0.38304988
199	0xbfb3331a	-1.399997
200	0x3e2ade45	0.16686352
201	0x3fbdca60	1.4827385
202	0x3f917d6f	1.1366404
203	0xbf96f1e1	-1.1792566
204	0x3f37ba31	0.7176848
205	0xbe11b648	-0.14229691
206	0xbf7b4e5d	-0.9816645
207	0x3f3bd1b8	0.7336688
208	0x3fe4152b	1.781896
209	0xbf319369	-0.69365555
210	0xbf5fe612	-0.87460434
211	0x3eba7a09	0.3642123
212	0xbe5c9f51	-0.2154515
213	0xbc950553	-0.018191015
214	0x3fcaf6ca	1.5856564
215	0x3f20d54d	0.6282547
216	0x3f97de12	1.1864645
217	0x3f602259	0.8755241
218	0x3e288088	0.16455281
219	0xbf6dad09	-0.92842156
220	0xbe9c49c3	-0.30525026
221	0x400ba258	2.1817837
222	0x3f90d2a6	1.1314285
223	0xbed168dd	-0.40900317
224	0xbe1cba46	-0.15305433
225	0xbd8283ee	-0.0637282
226	0x3e8495a8	0.2589543
227	0xbd37821e	-0.044801824
228	0x3ea45745	0.3209783
229	0x3f0db6e6	0.55357206
230	0x3e0d3f73	0.13793735
231	0x3e095277	0.13410364
232	0x3e4e8866	0.2016922
233	0xbdc3c8ba	-0.0955977
234	0xbf704d3d	-0.93867856
235	0x3ebfd77d	0.37469092
236	0xbfb932af	-1.4468592
237	0xbf4d74e6	-0.802565
238	0x3ff830c8	1.9389887
239	0xbf020ed8	-0.508039
240	0x3d849d2e	0.06475292
241	0x3f8a4c9a	1.0804627
242	0xbfb873cf	-1.4410342
243	0xbf81a680	-1.0128937
244	0x3f957084	1.1674962
245	0xbf8daadc	-1.1067767
246	0xbf650be5	-0.89471275
247	0xbf3dafc6	-0.74096334
248	0xbe3c5980	-0.18393517
249	0x3e6ddd81	0.23229028
250	0x3f600551	0.8750811
251	0x3f4e65fb	0.8062436
252	0xbf88ff90	-1.0702991
253	0x3f78b2e4	0.97147965
254	0x400bef69	2.1864874
255	0xbf916f3a	-1.1362069

weight_ih_l0 f4 [300, 100]
0	0xbdf8a745	-0.12141279
1	0x3d0f970c	0.03505616
2	0xbd7241f9	-0.059144948
3	0xbd620637	-0.05518171
4	0xbdb3bfdc	-0.08776829
5	0x3e0adf0c	0.13561648
6	0x3cd27987	0.025692714
7	0x3d530231	0.05151576
8	0xbd0eeaba	-0.03489182
9	0x3db6f96f	0.089342944
10	0x3d830895	0.06398121
11	0xbc8ab178	-0.016930327
12	0xbc852da9	-0.016257124
13	0x3d9257de	0.071456656
14	0xbc795362	-0.015217634
15	0xbd3fcb5d	-0.0468248
16	0xbc963bcf	-0.018339066
17	0x3dd57d70	0.10424316
18	0x3d86b1bf	0.06576871
19	0x3d8978aa	0.06712468
20	0x3d2374b4	0.03990622
21	0x3cc394c4	0.023874648
22	0x3df037ba	0.11729379
23	0xbd9608d4	-0.073259026
24	0xbd58e1d5	-0.052949745
25	0xbd4ca5b1	-0.049962703
26	0xbd8f0cce	-0.06984864
27	0xbd924ba9	-0.07143337
28	0xbd5d641f	-0.05405056
29	0x3c61508b	0.013752113
30	0xbd856d63	-0.065150045
31	0x3c82e5ff	0.015978811
32	0x3d83829f	0.06421398
33	0x3d50f01d	0.05101024
34	0xbdd65825	-0.10466031
35	0x3d256fbf	0.040389773
36	0xbdef4e2d	-0.11684833
37	0x3d3dd525	0.04634585
38	0xbd2ee971	-0.042703096
39	0x3d9ba1f0	0.075992465
40	0x3dc7ab60	0.09749484
41	0x3d85b6a4	0.065289766
42	0x3d36ac60	0.044597983
43	0xbcfd80c3	-0.030945187
44	0x3dbbf173	0.09176912
45	0x3c1ae74e	0.009454561
46	0xbd1e44eb	-0.038639944
47	0x3d78ee93	0.060774397
48	0xbd16d949	-0.036828313
49	0x3d3610dc	0.044449672
50	0x35e6aaea	1.7186078e-06
51	0x3c65827a	0.014008159
52	0xbd3aa7f9	-0.045570347
53	0xbdac73ae	-0.08420502
54	0x3d711da0	0.058866143
55	0xbe0540d3	-0.1301301
56	0x3da0ce26	0.0785182
57	0xbdb99591	-0.09061731
58	0xbdefc3c3	-0.117072605
59	0xbbe54a5d	-0.00699739
60	0xbbb2eac6	-0.005460116
61	0xbe0dc344	-0.13844019
62	0xbcacf7c7	-0.021114243
63	0x3d012cf8	0.031537026
64	0xbdac8913	-0.08424582
65	0xbd3c17c3	-0.0459211
66	0x3d380903	0.04493047
67	0xbc4e9a26	-0.012609994
68	0xbbe31654	-0.006930152
69	0xbc68bdd2	-0.014205413
70	0xbce803bd	-0.028322095
71	0xbdd21376	-0.10257618
72	0xbd244515	-0.040104944
73	0x3b62d1c0	0.0034609884
74	0x3d977194	0.0739471
75	0x3c38bd59	0.011275613
76	0x3d5116c1	0.05104709
77	0xbd586dce	-0.052839093
78	0xbd270be9	-0.040782843
79	0xbd2d12ce	-0.04225426
80	0x3d34577e	0.04402875
81	0x3e091baa	0.13389459
82	0x3dc3d9c3	0.09563019
83	0x3dc9ebf0	0.09859455
84	0xbd878fa9	-0.06619198
85	0x3dbc6ef4	0.0920085
86	0x3d616a74	0.055033162
87	0x3d96ed22	0.07369448
88	0xbc4b71af	-0.012417241
89	0xbc6de1d6	-0.0145191755
90	0xbcf20270	-0.029542178
91	0xbdd450f4	-0.10367003
92	0x3d1b107a	0.03785751
93	0xbd34a041	-0.044098143
94	0xbd0f3e96	-0.034971796
95	0x3d6dd3fa	0.058063485
96	0xbd979121	-0.07400728
97	0xbc5dc9f6	-0.013536921
98	0x3cc24687	0.02371527
99	0x3da4d7ba	0.08048959
100	0xbde00be6	-0.109397694
101	0x3d6abf59	0.05731139
102	0xba83ff37	-0.0010070567
103	0x3d9ef4cc	0.07761535
104	0xbe186502	-0.14882281
105	0x3bc48c3c	0.0059981626
106	0xbd2fd808	-0.042930633
107	0x3c4c84da	0.012482846
108	0x3d83d3f5	0.06436912
109	0xbd7f3833	-0.062309455
110	0x3d24d9be	0.040246718
111	0x3d31e067	0.043426897
112	0x3cdcb74e	0.026942875
113	0xbd54f2ca	-0.051989354
114	0xbd472883	-0.04862262
115	0xbdbf618f	-0.0934478
116	0xbd8ced9c	-0.06881258
117	0xbe06e886	-0.13174638
118	0x3cc4661f	0.023974476
119	0x3e17e3f5	0.14833052
120	0x3df5637b	0.11981865
121	0xbca4c196	-0.02011184
122	0x3b6ebfe0	0.0036430284
123	0x3d028590	0.031865656
124	0xbd8c328b	-0.06845578
125	0xbd67667a	-0.056494214
126	0xbe0ae12a	-0.13562456
127	0x3d83b808	0.064315856
128	0x3d8a6ac9	0.06758649
129	0xbd78dc63	-0.060757052
130	0xbd8b442e	-0.068001136
131	0xbdaabf17	-0.08337229
132	0x3d95893d	0.07301567
133	0x3df97205	0.121799506
134	0xbda94673	-0.0826539
135	0xbdbfa967	-0.09358483
136	0x3de02b15	0.10945717
137	0x3d15f88f	0.036613997
138	0xbd896664	-0.067089826
139	0x3e1446a9	0.1448008
140	0xbd6ed635	-0.058309752
141	0x3dca5b26	0.098806664
142	0x3dd7e58b	0.10541829
143	0xbdaad9a1	-0.08342291
144	0xbdeddf63	-0.11614873
145	0x3d6647e5	0.056220908
146	0xbd2349d2	-0.039865322
147	0x3c90dcaa	0.017683346
148	0xbdf8b752	-0.121443406
149	0xbd3b63c3	-0.045749437
150	0xba574eb3	-0.0008213326
151	0xbd7633e9	-0.0601081
152	0x3ccd6652	0.025073204
153	0xbe1aa819	-0.15103187
154	0xbd02f124	-0.03196825
155	0xbdbf46d5	-0.09339682
156	0xbd9ac6fd	-0.07557485
157	0xbd4bab66	-0.049724005
158	0xbc83dd04	-0.0160966
159	0x3e048cb1	0.12944295
160	0xbd384a3e	-0.044992678
161	0x3dad4018	0.084594905
162	0x3e03a55c	0.12856048
163	0xbd9e395f	-0.077257864
164	0xbd4c74ff	-0.049916264
165	0xbd0de7a6	-0.034644745
166	0xbcd28051	-0.025695952
167	0x3d81ec05	0.06343845
168	0x3d93bf8a	0.072142676
169	0x3d44b989	0.048028503
170	0xbdec659a	-0.115428165
171	0xbc940455	-0.018068472
172	0xbd454ec7	-0.04817083
173	0xbd451c82	-0.04812289
174	0xbcc4c2b3	-0.024018621
175	0xbdb82805	-0.08992008
176	0xbd54b2d9	-0.051928375
177	0x3bc27e10	0.005935438
178	0x3bdebe4e	0.0067975884
179	0xbd9b82e1	-0.075933225
180	0x3ccc8c7a	0.024969328
181	0xbd5c27f7	-0.05374905
182	0xb966252e	-0.0002194836
183	0xbdded08c	-0.10879621
184	0x3d9a0984	0.07521346
185	0x3ddf80d9	0.109132476
186	0x3dd73010	0.10507214
187	0xbc4f399c	-0.0126480125
188	0xbd3c3364	-0.045947447
189	0xbdcf8999	-0.101336665
190	0xbdb82234	-0.08990899
191	0xbdd9ca33	-0.106342696
192	0x3da3ed76	0.080042765
193	0xbd36bd6f	-0.04461425
194	0x3c64541a	0.013936067
195	0xbdd90784	-0.105971366
196	0x3cc9f578	0.024653181
197	0xbcde4ed8	-0.027137205
198	0xbca2e0a7	-0.019882513
199	0x3d964a6e	0.07338415
200	0xbd935b0b	-0.071950994
201	0xbd3bbb8c	-0.045833156
202	0x3d987c3e	0.07445572
203	0xbdaaa157	-0.083315544
204	0x3d18df9b	0.03732262
205	0x3d25cd30	0.040478885
206	0xbd088fa7	-0.033340123
207	0xbca06a6f	-0.019582001
208	0x3ce8fb9e	0.028440293
209	0x3d8154d4	0.06315008
210	0x3d72f0eb	0.05931179
211	0x3d9aee16	0.075649425
212	0xbcfc52fe	-0.030801293
213	0xbdc29be2	-0.095023885
214	0x3c872de0	0.016501367
215	0xbc099e4b	-0.008399556
216	0xbcefcdd3	-0.02927295
217	0x3d3e26e9	0.046423826
218	0xbc850c7a	-0.0162413
219	0xbbfc05f0	-0.0076911375
220	0x3cf6be6f	0.030120103
221	0xbda0059b	-0.07813569
222	0x3b942991	0.0045215567
223	0x3d41a8de	0.047280185
224	0x3d812c1d	0.06307242
225	0x3d3a780f	0.045524653
226	0xbdc1c200	-0.09460831
227	0x3c10ba20	0.008833438
228	0xbd47ba89	-0.04876188
229	0xbd1efbfd	-0.038814534
230	0x3dad209c	0.08453485
231	0xbd91da48	-0.07121712
232	0x3dd41057	0.10354679
233	0xbd21552b	-0.039387863
234	0xbd5c66a2	-0.053808816
235	0x3cde36cf	0.027125744
236	0xbd915f27	-0.07098227
237	0xbccccd70	-0.025000304
238	0x3dd41e08	0.103572905
239	0xbd3c63b5	-0.045993526
240	0xbcde858d	-0.027163291
241	0x3d1204b0	0.035649
242	0xbda10098	-0.078614414
243	0xbdc01e6d	-0.09380803
244	0x3d6833d6	0.05669006
245	0x3d39fe45	0.045408506
246	0x3d859e42	0.06524326
247	0x3d882cfd	0.06649206
248	0xbdbfa771	-0.09358109
249	0x3dbc1ea3	0.09185531
250	0xbd44d6dc	-0.04805647
251	0xbc1dc1bb	-0.0096287085
252	0x3d0e07ef	0.034675535
253	0x3d26ccb3	0.04072256
254	0xbc288a55	-0.010286887
255	0xbd681d2b	-0.05666844

weight_hh_l0 f4 [300, 100]
0	0x3d6b359a	0.057424165
1	0xbca53141	-0.020165088
2	0x3d499e22	0.049223073
3	0x3df27e40	0.118404865
4	0xbdb4ff7e	-0.08837794
5	0xbcee5af1	-0.029096099
6	0xbdf68bec	-0.12038407
7	0xbcbaf05c	-0.02281969
8	0x3d61b94f	0.055108365
9	0xbd9f9d42	-0.077936664
10	0x3d51efca	0.05125407
11	0x3d90c069	0.07067949
12	0xbd6a32f7	-0.05717751
13	0x3cc1e680	0.023669481
14	0xbdc903f6	-0.098152086
15	0x3cf735d9	0.030177044
16	0xbcd34187	-0.025788082
17	0x3d7199b4	0.058984473
18	0xbde8df1c	-0.1137068
19	0xbc4144ed	-0.011796218
20	0xbd431b77	-0.047633614
21	0xbd965b2a	-0.07341607
22	0xbd40c384	-0.04706146
23	0x3d6039a2	0.054742463
24	0xbd684e57	-0.056715336
25	0x3d85e659	0.06538076
26	0xbe14dd56	-0.14537558
27	0xbdf01dad	-0.1172441
28	0xbe12b184	-0.1432553
29	0xbd75c396	-0.06000098
30	0xbdeb161e	-0.11478828
31	0x3dab86b8	0.08375305
32	0x3d6b8295	0.05749758
33	0xbd24f2ff	-0.0402708
34	0x3d8f0cbd	0.069848515
35	0xbbf3da10	-0.0074417666
36	0xba7b6c61	-0.000959104
37	0x3d838325	0.06421498
38	0xbaff1558	-0.0019461317
39	0x3c9bfe8c	0.019042276
40	0xbd196c06	-0.037456535
41	0x3dbafd08	0.09130293
42	0x3cc1c05e	0.023651298
43	0x3d52d040	0.051468134
44	0x3c37522d	0.011189026
45	0xbbfd438a	-0.0077289985
46	0x3d7afbd7	0.06127533
47	0xbd867751	-0.065657265
48	0x3d233a25	0.039850373
49	0x3db0b311	0.08627904
50	0x3d189c36	0.03725835
51	0x3ac75fab	0.0015211006
52	0xbda9e706	-0.08296017
53	0x3ca900c7	0.020630253
54	0xbd4a51df	-0.049394485
55	0xbc3c06d6	-0.011476239
56	0xbb24fb2e	-0.0025174129
57	0xbd3a1e6f	-0.04543918
58	0x3dab6956	0.083697006
59	0x3d5bde87	0.053679015
60	0x3bdc6a3f	0.0067265327
61	0x3c131787	0.008977777
62	0xbceee9db	-0.029164245
63	0xbddb4dd9	-0.10708208
64	0xbd64ca1d	-0.055856813
65	0xbe0d1451	-0.13777281
66	0x3cee6d52	0.029104862
67	0xbd7da915	-0.061928827
68	0xbd0c63b8	-0.034274787
69	0x3d64d148	0.05586365
70	0x3ce7212d	0.028214062
71	0xbd86eff0	-0.06588733
72	0x397c5177	0.00024062941
73	0x3cf04e63	0.029334253
74	0xbd45a717	-0.048255052
75	0xbdfcbe41	-0.123409756
76	0xbbdae92e	-0.006680629
77	0x3db03124	0.08603123
78	0x3d6b8909	0.057503734
79	0xbdd06e4c	-0.101772875
80	0xbd0dab32	-0.034587093
81	0xbd6b67a7	-0.057471897
82	0xbdd708ab	-0.104997
83	0xbc9c81c3	-0.019104844
84	0x3dd8f9ee	0.10594545
85	0x3c76e22e	0.015068574
86	0x3d87348f	0.06601822
87	0xbcb83824	-0.022487707
88	0x3da934d6	0.08262031
89	0xbdc50d20	-0.09621644
90	0xbda47a04	-0.08031085
91	0xbdd1a7a1	-0.10237051
92	0x3dd959d9	0.1061284
93	0xbd0232a4	-0.031786576
94	0x3e115143	0.14191155
95	0x3c0d7c32	0.0086355675
96	0x3d299e5f	0.0414108
97	0x3ce41b3b	0.027845016
98	0x3b7cec7b	0.0038593102
99	0xbae938f8	-0.0017793467
100	0xbc85811b	-0.016296914
101	0xbcf4e543	-0.029894477
102	0xbbf222ab	-0.0073893867
103	0xbd884fc2	-0.066558376
104	0xbdccdbe3	-0.100028776
105	0xbc7d4115	-0.015457411
106	0x3d5ecc3a	0.054393984
107	0xbd8cef05	-0.06881527
108	0x3df19256	0.117954895
109	0x3d22b9a9	0.03972784
110	0xbd7f249d	-0.062290777
111	0xbd443664	-0.047903433
112	0xbcd10591	-0.02551535
113	0x3c694fae	0.0142401885
114	0x38179b5d	3.61459e-05
115	0xbdfa59c3	-0.12224152
116	0x3b03bf23	0.002010294
117	0x3ca0a95f	0.019612012
118	0xbe0b08c7	-0.13577567
119	0xbca1b91a	-0.019741584
120	0xbd950166	-0.07275657
121	0xbd81201b	-0.06304952
122	0xbd7af572	-0.06126923
123	0x3dea7b03	0.11449244
124	0xbc288652	-0.010285931
125	0x3df33597	0.11875456
126	0xbd9e2bb3	-0.07723179
127	0xbddcbd2f	-0.107782714
128	0x3da3269a	0.07966347
129	0xbd8083d6	-0.06275146
130	0xbc3bb50c	-0.011456739
131	0x3db1225b	0.08649131
132	0xbd35e20e	-0.044405036
133	0xbcaba2c6	-0.02095164
134	0x3d6be475	0.05759092
135	0xbd4eaf5d	-0.05046021
136	0x3d5bf3f1	0.053699438
137	0xbd16ce49	-0.036817823
138	0x3d863e90	0.065549016
139	0xbd29e018	-0.041473478
140	0x3d763c73	0.060116243
141	0x3d23c000	0.039978027
142	0xbd50f87a	-0.051018216
143	0xbdf0201f	-0.117248766
144	0xbdf0d013	-0.11758437
145	0xbcbf64c2	-0.023363475
146	0xbda58880	-0.08082676
147	0xbd58ffa5	-0.052978177
148	0xbda09053	-0.07840028
149	0x3e0b3ca4	0.13597351
150	0xbd4a1cd8	-0.049343914
151	0x3da1e0af	0.07904183
152	0xbda3d854	-0.08000246
153	0xbce13484	-0.027490862
154	0x3dd5a717	0.104322605
155	0xbdb1e6f9	-0.08686633
156	0x3d1b1d3f	0.037869688
157	0xbd18117d	-0.037126053
158	0x3e08adec	0.13347596
159	0x3d8bbc46	0.0682302
160	0xbc7de4fa	-0.015496487
161	0x3c906fcf	0.01763144
162	0xbd98b93e	-0.07457207
163	0x3cd798f3	0.026318049
164	0x3af41cea	0.001862434
165	0xbcdff6e2	-0.027339403
166	0x3c2851f8	0.010273449
167	0xbc186c93	-0.00930323
168	0x3cfc8252	0.03082386
169	0xbd272d3f	-0.040814634
170	0xbb9604da	-0.004578215
171	0xbce671c3	-0.028130418
172	0xbcaf3cc7	-0.021391286
173	0xbcb034be	-0.021509524
174	0x3d96bc45	0.07360128
175	0xbc84456b	-0.016146382
176	0xbdadc47a	-0.084847406
177	0xbd99d1b1	-0.075106986
178	0x3dc55d79	0.09636969
179	0x3d3985db	0.04529367
180	0x3ce308a6	0.027714085
181	0x3d6e52b0	0.058184326
182	0xbd464a20	-0.048410535
183	0x3cd1000b	0.025512716
184	0x3d5a4b13	0.053294253
185	0x3d1e4490	0.038639605
186	0xbcc19327	-0.023629738
187	0xbc0dbddc	-0.008651223
188	0xbddd2be1	-0.10799385
189	0x3d60b214	0.05485733
190	0xbdb51e1d	-0.08843634
191	0xbda3d58f	-0.079997174
192	0xbd336aa2	-0.043802865
193	0xbdcd85df	-0.100352995
194	0x3d815f93	0.063170575
195	0x3da6f15b	0.08151504
196	0x3d8372b6	0.06418364
197	0xbd1c6e1d	-0.03819095
198	0xbda57783	-0.08079436
199	0xbd0651fb	-0.032793026
200	0x3ce2d1b9	0.027687894
201	0x3d96577b	0.07340904
202	0xbd7d4ae0	-0.061838984
203	0xbd1f4817	-0.03888711
204	0x3dc31bc8	0.09526783
205	0xbc8f810c	-0.017517589
206	0x3d4da415	0.05020531
207	0xbdcdb6ec	-0.10044655
208	0x3c668293	0.014069217
209	0xbddbfe99	-0.1074192
210	0x3c7b1ae8	0.015326239
211	0xbd1298c1	-0.03579021
212	0x3b9ec38f	0.0048450897
213	0xbde0c938	-0.109758794
214	0x3e04c7a5	0.12966783
215	0xbd1a17c8	-0.037620336
216	0x3c693215	0.014233132
217	0x3d7ce650	0.06174308
218	0xbcb66f05	-0.022269735
219	0x3d9be8aa	0.076127365
220	0xbda9019c	-0.0825226
221	0xbd50a3b5	-0.050937373
222	0xbd842db7	-0.06454032
223	0xbd831169	-0.06399805
224	0xbd6a98a8	-0.05727449
225	0xbca9707f	-0.020683525
226	0xbd39b3be	-0.04533743
227	0xbd899eda	-0.06719752
228	0xbda74829	-0.0816806
229	0xbd26b113	-0.040696215
230	0x3dc13c4c	0.09435329
231	0xbd515ad9	-0.05111203
232	0x3d8f452b	0.069956146
233	0xbcf700c1	-0.030151727
234	0xbd7fab8f	-0.06241947
235	0x3b888376	0.004166062
236	0x3ccebe69	0.025237279
237	0x3d7c3af6	0.061579667
238	0xbdc9fb8a	-0.098624304
239	0x3da00db7	0.07815116
240	0xbe01501e	-0.12628219
241	0x3dda23c9	0.10651357
242	0x3d4d6c1d	0.050151933
243	0xbe05e128	-0.13074172
244	0xbd04073c	-0.03223346
245	0xbd601a14	-0.05471237
246	0x3d805f9e	0.062682375
247	0xbc4c045a	-0.012452209
248	0xbd29a3d8	-0.04141602
249	0x3d813c72	0.06310357
250	0x3d983cde	0.074334845
251	0x3c3b5374	0.011433471
252	0x3d1beb19	0.038066003
253	0xbcfe38dc	-0.031032972
254	0x3ba72c10	0.005101688
255	0x3cf9e91e	0.030506667

bias_ih_l0 f4 [300]
0	0xbd428923	-0.047494065
1	0x3df25607	0.11832815
2	0xbbf4788f	-0.0074606608
3	0x3d94cb94	0.07265392
4	0x3ccd9870	0.025097102
5	0xbdefcb5a	-0.11708708
6	0x3e07225b	0.131967
7	0xbd6910d7	-0.056900825
8	0x3d4a93f4	0.049457505
9	0x3c817b77	0.015805943
10	0x3e050d24	0.12993294
11	0x3e01325a	0.12616864
12	0x3c4c1581	0.012456299
13	0xbdb7fb24	-0.08983448
14	0xbcdb80e6	-0.026794862
15	0x3c4048be	0.011736093
16	0x3c1cff44	0.009582344
17	0xbd107811	-0.035270754
18	0xbd8ebb28	-0.06969291
19	0xbdd4f87c	-0.10398957
20	0x3dadd820	0.08488488
21	0xbcfd7a89	-0.030942218
22	0x3ca354c9	0.01993789
23	0x3d5b5825	0.053550858
24	0xbcc3b0f8	-0.023888096
25	0xbd78184d	-0.06057005
26	0xbd39af35	-0.045333106
27	0x3d912e5f	0.07088923
28	0xbaa59c9c	-0.0012635174
29	0xbcd3353f	-0.025782226
30	0x3c60609d	0.013694909
31	0xbd716aef	-0.05893987
32	0x3d4f8b7a	0.050670125
33	0xbdd57229	-0.10422165
34	0x3de3975a	0.111128524
35	0xbcf8fa3f	-0.030392764
36	0xbd65c959	-0.056100223
37	0xbd86e0bf	-0.06585836
38	0x3ceb6289	0.028733509
39	0x3cf63f2a	0.030059416
40	0xbe14a9b1	-0.14517857
41	0x3da43bd4	0.08019224
42	0x3a9ffaa3	0.0012205433
43	0x3d702319	0.05862722
44	0x3d070f1d	0.032973398
45	0xbd3c0b41	-0.04590917
46	0x3c00145f	0.007817357
47	0x3daf74f4	0.08567229
48	0xbce85c2c	-0.028364263
49	0xbd9510ab	-0.0727857
50	0x3ddcbcc4	0.10778192
51	0x3badc16e	0.0053025996
52	0x3dab9ef1	0.08379925
53	0x3d0f1f7c	0.034942135
54	0xbdb94f79	-0.09048361
55	0xbc8aaddd	-0.016928608
56	0x3d1cee2f	0.038313087
57	0x3da8fe5b	0.082516395
58	0xbd2dbf3f	-0.042418715
59	0xbdc35c82	-0.09539129
60	0x3c9287ee	0.017887082
61	0x3d9f2920	0.07771516
62	0x3c28dd1f	0.010306626
63	0x3d930208	0.07178122
64	0xbd1bf0d3	-0.038071465
65	0x3d061342	0.03273321
66	0x3d37fc95	0.044918615
67	0xbd08b096	-0.03337153
68	0x3d09017f	0.033448692
69	0xbbecfb0d	-0.007232076
70	0xbcac7af3	-0.02105472
71	0xbc4b166e	-0.012395484
72	0xbdba00a7	-0.09082156
73	0x3dbfd460	0.09366679
74	0x3ddbfebd	0.10741947
75	0x3cd850a6	0.026405644
76	0x3e076195	0.13220818
77	0xbd03352e	-0.032033138
78	0xbcf4d242	-0.029885415
79	0xbd8b8a19	-0.068134494
80	0xbd4dbb27	-0.05022731
81	0x3e16e5c7	0.1473609
82	0x3b6ba992	0.0035959226
83	0xbc6bd125	-0.014393126
84	0x3d09c57b	0.033635598
85	0xbd922edc	-0.07137844
86	0xbca48c78	-0.020086512
87	0x3d85980f	0.065231435
88	0x3d4bf87c	0.04979752
89	0xbd0f8e3b	-0.03504775
90	0xbd80c754	-0.06288019
91	0xbdb322f5	-0.08746902
92	0x3d313a68	0.04326859
93	0x3dd1e429	0.10248596
94	0xbdb15d24	-0.08660343
95	0xbd1b7138	-0.03794977
96	0x3d6eca6e	0.05829852
97	0x3de0bce6	0.109735295
98	0x3e0166c3	0.12636857
99	0x3c10563e	0.008809624
100	0x3cc401e1	0.023926677
101	0xbdb37fd7	-0.08764618
102	0xbd013261	-0.031542186
103	0xbde416c1	-0.111371525
104	0xbcddde2d	-0.02708348
105	0x3db7bd0e	0.08971606
106	0x3c1349da	0.008989776
107	0x3d1b70a5	0.037949223
108	0xbdfbf7e6	-0.12303142
109	0x3d826c6a	0.063683346
110	0xbd49f68f	-0.049307402
111	0xbd303de7	-0.043027785
112	0x3cb565b6	0.022143226
113	0x3cf69363	0.030099576
114	0x3d414923	0.04718889
115	0xbe042636	-0.12905201
116	0xbdcaf8d5	-0.09910742
117	0xbd0d98fc	-0.034569725
118	0x3d47a6ae	0.048742943
119	0x3dd3a13e	0.10333489
120	0xbdecb5cd	-0.11558113
121	0x3c555184	0.013019923
122	0xbdccebdc	-0.10005924
123	0x3c70e473	0.014702904
124	0xbd9d6d9c	-0.07686922
125	0xbb8c4d92	-0.004281708
126	0xbcbaf896	-0.022823613
127	0x3dd508d3	0.10402074
128	0xbdbb4641	-0.09144259
129	0x3c0416a5	0.0080620395
130	0xbe1cd365	-0.15315016
131	0xb693ed00	-4.408532e-06
132	0xbca8b214	-0.020592727
133	0xbcc8946f	-0.024484841
134	0xbcf4c684	-0.029879816
135	0x3de5dbf1	0.11223591
136	0xbe00e097	-0.12585674
137	0x3bae7bec	0.005324831
138	0x3c883ea1	0.016631426
139	0xbbdee076	-0.00680166
140	0xba7af639	-0.0009573433
141	0x3c809c08	0.015699401
142	0xbd58bfaf	-0.05291718
143	0x3d45c4c2	0.048283346
144	0xbd074313	-0.03302295
145	0xbdf80793	-0.1211082
146	0x3d43aae3	0.047770392
147	0x3d70b6fa	0.05876825
148	0xbd1fe628	-0.039037853
149	0xbe1831c6	-0.14862737
150	0x3d890f2a	0.066923454
151	0xbdc1610c	-0.09442338
152	0xbd23d25b	-0.039995532
153	0xbd7a1ebb	-0.061064463
154	0x3df584e7	0.1198824
155	0xbdc57ab9	-0.09642548
156	0xbb7c2865	-0.0038476225
157	0x3dd91ee9	0.10601599
158	0xbd1d6daa	-0.038434662
159	0x3d9f2d95	0.07772366
160	0x3d8364d9	0.064157195
161	0x3d967c6f	0.073479526
162	0x3d369d94	0.044583872
163	0x3d573ef0	0.052550256
164	0x3d08b7c2	0.03337837
165	0xbd922965	-0.07136802
166	0xbe135db1	-0.14391209
167	0x3c88965d	0.016673261
168	0xbdf3fc19	-0.11913318
169	0xbd07abe2	-0.033122905
170	0x3e114b83	0.14188962
171	0xbc04270b	-0.008065949
172	0xbd86c671	-0.065808184
173	0xbd1590e4	-0.03651513
174	0xbdbe60ee	-0.092958316
175	0x3cf703d2	0.030153189
176	0xbd9df8eb	-0.07713493
177	0x3d776b06	0.0604048
178	0xbcff50db	-0.031166485
179	0xbd21de9d	-0.03951894
180	0x3d1d5039	0.038406584
181	0xbd76c5d8	-0.060247272
182	0xbc15e780	-0.009149432
183	0xbd35cb98	-0.044383615
184	0xbe0887da	-0.13333073
185	0xbd713659	-0.05888972
186	0xbda7ae3f	-0.08187532
187	0x3df520f4	0.11969176
188	0xbde251f0	-0.110507846
189	0x3a91fe71	0.0011138452
190	0xbd8cb701	-0.06870843
191	0x3cd23e06	0.02566434
192	0xbbb2e493	-0.005459377
193	0xbd713e19	-0.05889711
194	0x3c9e2539	0.019304859
195	0x3ded8d95	0.1159927
196	0xbd50df5a	-0.050994255
197	0x3d541e0a	0.05178646
198	0xbd450ab8	-0.048105925
199	0x3b9dfc8c	0.0048213657
200	0xbd95e8a1	-0.07319761
201	0xbdedb741	-0.116072185
202	0xbe09da2f	-0.13462137
203	0x3dbf0dbe	0.09328793
204	0xbcf84cba	-0.030310024
205	0x3ddda134	0.10821763
206	0xbc56dcaf	-0.0131141385
207	0x3beb14eb	0.0071741245
208	0x3dbeada5	0.09310464
209	0xbdf099ff	-0.117481224
210	0xbc9d6778	-0.019214377
211	0x3cb89b60	0.022535026
212	0xbb58cf1b	-0.003308243
213	0xbd86f184	-0.06589034
214	0xbdb39fee	-0.087707385
215	0xbe004f27	-0.12530194
216	0xbdedfd62	-0.116205946
217	0xbd982a71	-0.0742997
218	0xbd2d9508	-0.042378455
219	0xbdd965ed	-0.10615144
220	0xbdab8d0e	-0.083765134
221	0xbd33fc4f	-0.043941792
222	0xbc91f2a8	-0.017815903
223	0xbd9b3cd9	-0.07579965
224	0xbd28ad0f	-0.041180667
225	0x3ddf16a3	0.108929895
226	0xbc6b20f1	-0.014351116
227	0x3d8ad18f	0.067782514
228	0xbd421644	-0.047384515
229	0x3d89e491	0.06733049
230	0xbd22a856	-0.03971132
231	0xbd8b5b02	-0.06804468
232	0x3c51a30c	0.012795221
233	0x3d771632	0.0603239
234	0x3c88c3d8	0.016694948
235	0xbe147265	-0.14496763
236	0x3de2cf9f	0.11074757
237	0x3d90630c	0.07050142
238	0xbd86a0d1	-0.06573642
239	0x3d8310f2	0.063997164
240	0xbdd8da93	-0.10588565
241	0xbd991d95	-0.074763454
242	0xbd44bb79	-0.04803035
243	0x3c68c1de	0.014206378
244	0xbe10939e	-0.14118811
245	0x3db15a1f	0.08659767
246	0xbd415030	-0.047195613
247	0xbe04b5cd	-0.12959976
248	0x3d732e39	0.059370253
249	0xbdf6d45f	-0.12052225
250	0x3e0f8ce1	0.14018585
251	0x3d28b4f3	0.04118819
252	0xbdd019b3	-0.10161152
253	0x3b7ac2cf	0.0038263088
254	0x3d34e32d	0.044161964
255	0x3d033914	0.032036856

bias_hh_l0 f4 [300]
0	0x3e111a17	0.14170109
1	0x3ddc9b5f	0.10771822
2	0x3ce442d0	0.02786389
3	0xbdc995fd	-0.09843061
4	0xbd6b8419	-0.057499025
5	0xbdb9d2ca	-0.09073408
6	0x3d4e0e1c	0.050306424
7	0xbcbf1744	-0.023326524
8	0xbd4c41d4	-0.049867466
9	0xbb8b28f1	-0.004246824
10	0x3df279a7	0.118396096
11	0x3d3750a3	0.044754636
12	0x3d31c8b6	0.043404303
13	0xbd220f85	-0.03956558
14	0x3d2e7511	0.042592112
15	0xbd637e6f	-0.0555405
16	0x3d106f21	0.03526223
17	0x3d8e878a	0.06959446
18	0xbd06b94f	-0.032891568
19	0x3cd1dc97	0.02561788
20	0x3d0c3773	0.034232568
21	0xbd04dfd8	-0.032440037
22	0x3e126570	0.14296508
23	0xbc5dd8ea	-0.013540486
24	0x3e17b2cb	0.14814298
25	0xbd806bad	-0.062705375
26	0x3b8e54aa	0.004343589
27	0xbd9c4882	-0.07631017
28	0xbddabec8	-0.1068092
29	0xbe04f751	-0.12984969
30	0xbe042160	-0.12903357
31	0xbdf37d72	-0.11889161
32	0x3dbd8a20	0.09254861
33	0xbdd2fa6d	-0.10301671
34	0xbcac7965	-0.02105398
35	0xbc764e52	-0.015033321
36	0x3da6f441	0.081520565
37	0xbdaba265	-0.08380584
38	0xbd984221	-0.07434488
39	0x3d50d89a	0.050987817
40	0xbe0ec322	-0.13941625
41	0x3d751ed3	0.05984385
42	0x3c519154	0.012790997
43	0xbd530b6e	-0.051524572
44	0x3de87fbb	0.11352488
45	0xbe01e037	-0.12683187
46	0x3d0bfbde	0.034175746
47	0xbbcb68d6	-0.006207566
48	0x3dca2eac	0.09872183
49	0x3d7bf650	0.0615142
50	0x3d92060d	0.0713006
51	0xbdacb5f4	-0.08433142
52	0x3d6fdf2c	0.058562443
53	0x3d24617c	0.04013203
54	0xbdcdc76b	-0.100478016
55	0x3d6fdf28	0.058562428
56	0x3cb0cc05	0.02158166
57	0xbdb9b5fd	-0.09067915
58	0xbe02a86c	-0.1275956
59	0x3c8a4b96	0.016881745
60	0x3e145565	0.144857
61	0xbdc3ee33	-0.09566917
62	0x3db41f19	0.08794994
63	0x3defeb64	0.11714819
64	0xbd48531c	-0.048907384
65	0x3d2ec851	0.042671505
66	0x3c2c64b6	0.010522058
67	0xbd3dbedc	-0.046324596
68	0x3ba4df6e	0.0050315177
69	0xbd3825b7	-0.044957843
70	0x3d141a57	0.036157932
71	0x3d000d22	0.031262524
72	0xbd35ae08	-0.044355422
73	0x3da56094	0.080750614
74	0xbd4d4c8e	-0.050121836
75	0x3c839944	0.016064294
76	0x3d8f19ae	0.0698732
77	0xbd59506a	-0.053055204
78	0xbd562fb7	-0.0522916
79	0xbd48df50	-0.049041092
80	0xbc79681b	-0.015222575
81	0x3e1a2617	0.15053593
82	0x3caf075f	0.02136582
83	0xbcb58f13	-0.02216295
84	0xbc9e0197	-0.019287867
85	0x3cd33aad	0.025784815
86	0x3dfefbf6	0.124504015
87	0xbd352b20	-0.04423058
88	0x3cc29caa	0.023756344
89	0x3db7c5ab	0.08973249
90	0xbb1a39b5	-0.0023532931
91	0x3aabbf87	0.0013103344
92	0xbc4b6870	-0.012415037
93	0x3e0cb196	0.13739619
94	0xba9c6859	-0.0011932953
95	0x3e159ac2	0.14609817
96	0x3d911f89	0.07086093
97	0xbc223696	-0.00990071
98	0x3d7f536b	0.062335413
99	0x3c9f1deb	0.019423446
100	0x3dfec394	0.12439647
101	0xbdc53660	-0.09629512
102	0x3dc060b8	0.09393448
103	0x3d14a74f	0.03629237
104	0xbdcce403	-0.10004427
105	0xbd65b9b0	-0.05608529
106	0x3dd92bb3	0.10604038
107	0xbd859620	-0.06522775
108	0xbe0d3b47	-0.13792144
109	0x3dc136fd	0.09434316
110	0x3b1e01a6	0.002410987
111	0x3c9ed29c	0.019387536
112	0xbd9fd79c	-0.07804796
113	0x3d190cc1	0.03736568
114	0x3de9518b	0.11392506
115	0xbde79bf8	-0.113090456
116	0xbd0717f5	-0.03298183
117	0xbdcaf193	-0.09909358
118	0x3d4512ea	0.04811374
119	0xbdb1beb0	-0.08678949
120	0xbd8a25ed	-0.06745515
121	0x3cc7347e	0.024317022
122	0x3c7cb1ec	0.015423279
123	0xbd6e757f	-0.05821752
124	0x3b8c4fc7	0.004281971
125	0x3d9626bf	0.07331609
126	0x3ddbe215	0.10736481
127	0xbcadeaf4	-0.021230198
128	0xbdb275ff	-0.08713912
129	0x3b4139d4	0.002948393
130	0xbd9ce2d1	-0.07660449
131	0x3d54b082	0.051926143
132	0x3c7e86f6	0.015535107
133	0xbdc3543c	-0.09537551
134	0x3d168414	0.036747053
135	0x3dd7916f	0.10525786
136	0xbdbdcc31	-0.09267462
137	0xbd7a06f3	-0.061041784
138	0xbc8df30c	-0.017327808
139	0x3c4d54d8	0.012532435
140	0xbd4bd587	-0.049764182
141	0xbd45b910	-0.048272192
142	0x3cb574a3	0.022150343
143	0xbd8173bf	-0.06320905
144	0x3d0557d8	0.032554477
145	0xbdca00c0	-0.09863424
146	0xbd641a1b	-0.05568896
147	0xbd4c35fe	-0.04985618
148	0xbd9ab3d7	-0.07553833
149	0xbe09f964	-0.13474041
150	0x3c9ee753	0.019397413
151	0x3d91bb49	0.071158
152	0x3d1d6796	0.038428865
153	0x3da9d36b	0.08292278
154	0x3d34439e	0.044009797
155	0xba94952b	-0.001133596
156	0x3deb2c28	0.114830315
157	0x3cea2eb7	0.028586728
158	0xbcd1da52	-0.025616799
159	0xbd63a266	-0.055574797
160	0x3c7a9755	0.015294869
161	0x3ab4195e	0.001374047
162	0xbcd9c40e	-0.026582744
163	0xbd10726e	-0.03526538
164	0xbd70aa78	-0.05875632
165	0x3c8fc34c	0.01754918
166	0x3d124b69	0.035716448
167	0x3c3a3e7a	0.011367435
168	0xbe040918	-0.12894094
169	0x3da67e60	0.08129573
170	0x3dd8854f	0.105723016
171	0x3d2596ae	0.040426902
172	0xbdb5ec8b	-0.088830076
173	0x3d953976	0.072863504
174	0x3caf1d4b	0.021376273
175	0x3dc74510	0.097299695
176	0xbd5cc498	-0.053898424
177	0x3d24d968	0.040246397
178	0xbcb2a40b	-0.021806737
179	0xbd3e6b64	-0.046489134
180	0x3d7bca61	0.0614723
181	0x3c609b11	0.013708846
182	0x3da4e3d9	0.08051271
183	0xbd8c676f	-0.06855666
184	0x3c487aac	0.0122362785
185	0xbd6e32eb	-0.058154028
186	0x3de8dc85	0.11370186
187	0xbd40ebad	-0.047099758
188	0x3c8efd1a	0.017454673
189	0xbde9e29c	-0.114201754
190	0xbd969771	-0.07353104
191	0xbd6114ae	-0.054951362
192	0x3d728954	0.059212998
193	0x3c6e3d06	0.014540916
194	0xbdb1213a	-0.086489156
195	0xbcd475d0	-0.025935084
196	0x3dafad5a	0.08577986
197	0xbd48e65c	-0.049047813
198	0xbe18ba19	-0.1491474
199	0x3d4aa65a	0.04947505
200	0xbe144965	-0.14481123
201	0xbdfcf824	-0.123520166
202	0xbd21680c	-0.039405867
203	0xbd480d4e	-0.048840813
204	0x3db8ea0a	0.090290144
205	0xbd54d120	-0.05195725
206	0xbdba4a9f	-0.09096264
207	0xbd13f7e9	-0.036125097
208	0x3dd9456d	0.10608945
209	0xbdeea03c	-0.11651656
210	0xbe10c5ff	-0.1413803
211	0x3d6a05cf	0.057134446
212	0x3da7ba40	0.08189821
213	0xbad975a3	-0.0016590845
214	0xbd209920	-0.03920853
215	0xbc37a1ad	-0.01120798
216	0xbe11eb8f	-0.14250015
217	0xbd23b31a	-0.039965726
218	0xbd2960ce	-0.041352086
219	0xbcca4b8a	-0.024694223
220	0xbd7fa404	-0.062412277
221	0xbce24a48	-0.02762331
222	0xbe1cfa70	-0.1532991
223	0xbd937357	-0.07199734
224	0x3d14a1ca	0.036287107
225	0x3dbfbd26	0.09362249
226	0xbdd78241	-0.10522891
227	0x3d2620b6	0.04055854
228	0x3d7240b7	0.059143748
229	0x3d376866	0.044777296
230	0x3da666ba	0.08125062
231	0x3d77f430	0.06053561
232	0x3da6237c	0.08112237
233	0xbde9ee33	-0.11422386
234	0x3de9da09	0.1141854
235	0xbdb7aeba	-0.08968873
236	0x3c6c0b0d	0.014406932
237	0x3ba2c25a	0.004967016
238	0x3cb67c2f	0.022276012
239	0x3b5af4fb	0.003341018
240	0xbda49613	-0.08036437
241	0xbe03d5f8	-0.12874591
242	0xbe040592	-0.1289275
243	0xbcc4e165	-0.024033258
244	0x3d2e7800	0.04259491
245	0xbd7322e7	-0.059359457
246	0x3e0dc45f	0.13844441
247	0xbdff795f	-0.124743216
248	0x3d504935	0.050851066
249	0x3d5eed01	0.054425243
250	0x3dcedc4f	0.10100614
251	0xbd60ce57	-0.05488428
252	0xbc9b82a0	-0.018983185
253	0x3cb6ad10	0.02229932
254	0xbd7b3e83	-0.061338913
255	0x3da59e86	0.080868766

weight f4 [256, 100]
0	0xbce32925	-0.02772958
1	0xbc0ba331	-0.008522795
2	0x3cf26381	0.029588463
3	0xbc3176a3	-0.010831508
4	0xbdde68c9	-0.1085983
5	0x3dea7956	0.11448924
6	0x3bf84d6c	0.007577589
7	0xbdb52a52	-0.088459626
8	0x3d9b5277	0.07584088
9	0xbdceec6f	-0.1010369
10	0xbd509b41	-0.05092931
11	0x3ca691d4	0.020333208
12	0xbd8b0da9	-0.06789715
13	0xbaa68a65	-0.001270604
14	0xbdb66577	-0.08906072
15	0x3da6edcb	0.08150824
16	0xbd8f910f	-0.070100896
17	0xbd657c5e	-0.05602681
18	0x3d412874	0.04715772
19	0x3d3bc68b	0.045843642
20	0xbd6b5923	-0.057458054
21	0x3db1e831	0.08686865
22	0xbc737fbb	-0.014861996
23	0xbd2bf209	-0.04197887
24	0xbde6b248	-0.11264473
25	0xbc18adf2	-0.009318816
26	0x3da418c4	0.08012536
27	0x3d32f7f4	0.043693498
28	0xbdedab3b	-0.11604925
29	0x3ddd2709	0.10798461
30	0x3cb58b07	0.02216102
31	0x3c1097a9	0.008825221
32	0x3dd9a63a	0.10627408
33	0xbc4043df	-0.011734932
34	0xbd004548	-0.03131607
35	0xbde1f2ca	-0.110326365
36	0x3d4666dc	0.048437938
37	0x3dc272bf	0.09494542
38	0xbdfc7dd9	-0.12328691
39	0x3de57754	0.11204401
40	0xbdd822ef	-0.10553538
41	0xbdc751d3	-0.097324036
42	0xbdc82cdc	-0.09774181
43	0xbda952f1	-0.08267773
44	0xbd0063e7	-0.031345274
45	0x3d6bbb0f	0.05755144
46	0x3e1148b8	0.14187896
47	0xbdd9d773	-0.10636797
48	0xbd7a9d96	-0.061185442
49	0x3cb49810	0.022045165
50	0x3e06f834	0.1318062
51	0xbcf0bc29	-0.029386597
52	0xbd849a3d	-0.06474731
53	0x3c56f59f	0.013120084
54	0xbd2ba3da	-0.041904308
55	0xbd468552	-0.048466988
56	0x3be07236	0.0068495525
57	0x3dbf802f	0.09350621
58	0x3ce1b2f2	0.027551148
59	0xbdcdd961	-0.10051227
60	0xbd57779c	-0.052604303
61	0xbdde999f	-0.10869145
62	0xbdc99267	-0.09842377
63	0xbe11806b	-0.14209144
64	0xbde31f79	-0.11089987
65	0xbdc436ea	-0.095807865
66	0xbe0696e8	-0.13143504
67	0xbd4b3b2d	-0.04961698
68	0x3d7646a2	0.060125954
69	0x3e0bbfa3	0.13647322
70	0x3d8f4c52	0.06996979
71	0xbd2fb75b	-0.04289947
72	0x3da23723	0.07920673
73	0x3d167789	0.03673509
74	0x3d15a58c	0.03653483
75	0x3da3417a	0.07971473
76	0xbdbb4d54	-0.091456085
77	0x3d5d5ca7	0.05404344
78	0x3d06a21f	0.032869454
79	0x3db81631	0.08988608
80	0xbb3bc65b	-0.0028652165
81	0x3e0c3733	0.13692932
82	0xbd70fa42	-0.058832414
83	0x3cb98dad	0.022650564
84	0xbdc9032d	-0.09815059
85	0xbcc8d173	-0.024513936
86	0x3d03a85e	0.03214299
87	0xbd2abba7	-0.041682865
88	0x3e0e1ebd	0.13878913
89	0xbe15b9c3	-0.14621644
90	0xbde4d6a4	-0.11173752
91	0x3e0b9e95	0.13634713
92	0x3dc3f4cd	0.095681764
93	0x3e0f05d3	0.13967066
94	0x3d99056c	0.07471737
95	0x3ddc29d1	0.10750163
96	0xbdc29407	-0.0950089
97	0xbb990945	-0.0046702945
98	0x3da63c95	0.08117024
99	0x3b138318	0.0022508558
100	0x3d32fab2	0.043696113
101	0xbdff951d	-0.12479613
102	0x3bbb7b49	0.005721484
103	0xbdb298d7	-0.08720558
104	0xbd263995	-0.04058226
105	0x3d822a19	0.06355686
106	0x3cdb696b	0.026783666
107	0x3d23a442	0.03995157
108	0xbd5828ac	-0.052773163
109	0x3c5ba1fb	0.013405318
110	0xbdba8ae9	-0.09108526
111	0xbd6a2d53	-0.05717213
112	0x3d7a36b2	0.061087318
113	0xbc9f5522	-0.019449774
114	0x3d1283dd	0.035770286
115	0xbdc66c96	-0.0968868
116	0xbd5a7f32	-0.05334396
117	0xbd6802e4	-0.05664338
118	0x3d76cdbb	0.060254794
119	0xbdfd7a6f	-0.12376868
120	0xbd3b6047	-0.045746114
121	0xbe0cb9fe	-0.13742825
122	0xbdcbc10a	-0.09948929
123	0xbd96d684	-0.07365134
124	0xbe159125	-0.1460615
125	0x3e1679c4	0.14694887
126	0xbd5179a0	-0.05114138
127	0x3dd031ba	0.101657346
128	0xbd6f742a	-0.058460392
129	0xbd888321	-0.06665636
130	0xbc9f7b07	-0.019467844
131	0xbbf506ef	-0.007477633
132	0x3d553472	0.05205197
133	0xbd241824	-0.040062085
134	0x3de5442c	0.111946434
135	0xbe0e8c26	-0.1392065
136	0x3d91158b	0.07084187
137	0xbd8c6d53	-0.068567894
138	0xbd2d50cf	-0.042313393
139	0xbdadb20e	-0.08481227
140	0x3d4c6983	0.04990531
141	0x3d2853e5	0.041095633
142	0xbd4f5dba	-0.050626494
143	0xbc8ad887	-0.016948951
144	0xbd5f9cbb	-0.05459283
145	0xbcb42caf	-0.021993963
146	0x3b4d3695	0.003131305
147	0xbe06826d	-0.13135691
148	0x3d9acd21	0.075586565
149	0xbd24830e	-0.040164046
150	0x3e088b70	0.13334441
151	0x3e159b63	0.14610057
152	0xbdaa51d9	-0.083163925
153	0x3cf22499	0.029558467
154	0x3d09b5ab	0.033620518
155	0xbdd1e2dc	-0.10248348
156	0x3bd459b8	0.006480422
157	0x3e1c91c2	0.15289977
158	0x3d814a01	0.06312943
159	0xbd35909d	-0.044327367
160	0xbdb868a3	-0.09004333
161	0xbc21c18a	-0.009872803
162	0xbe0a9640	-0.13533878
163	0xbd315e1a	-0.043302633
164	0xbde522ce	-0.11188279
165	0x3cfdb9f1	0.030972453
166	0xbdb0ac00	-0.086265564
167	0xbdcdf1b2	-0.10055865
168	0xbdfb31df	-0.122653715
169	0xbd8d8ddc	-0.06911823
170	0xbc101394	-0.00879373
171	0x3d981e15	0.07427613
172	0x3cf2f6f3	0.02965877
173	0x3d16fd16	0.036862455
174	0xbe0498e1	-0.12948944
175	0x3d8ecff8	0.06973261
176	0xbc965f6f	-0.018356053
177	0x3d0330d5	0.03202899
178	0x3dc42a53	0.09578385
179	0x3d1df809	0.038566623
180	0x3d9cb519	0.07651729
181	0xbd325c89	-0.04354528
182	0xbd54852e	-0.051884823
183	0xbcfd14e2	-0.030893747
184	0x3db5a919	0.088701434
185	0x3d873834	0.06602517
186	0x3d55b5ab	0.052175205
187	0x3b04dcde	0.0020273249
188	0xbd499cff	-0.04922199
189	0xbd06d534	-0.03291817
190	0x3d436278	0.04770133
191	0x3e0e779d	0.13912816
192	0xbcecde66	-0.028914642
193	0x3e0baa3f	0.13639162
194	0xbcd584fa	-0.026064385
195	0x3ccbf7e6	0.02489848
196	0xbdb1a196	-0.08673398
197	0xbd26334d	-0.040576268
198	0x3d92fb2c	0.071768135
199	0xbd8d40b5	-0.068971075
200	0xbe1195f4	-0.14217359
201	0xbdf17721	-0.117903
202	0xbe005c1e	-0.1253514
203	0x3dac8d66	0.08425407
204	0x3cb4f50d	0.022089506
205	0xbc6a9d1e	-0.014319686
206	0xbdb50c4e	-0.088402376
207	0xbe15cfeb	-0.14630096
208	0xbd9a5f70	-0.075377345
209	0xbd975d89	-0.07390887
210	0xbe12918b	-0.14313333
211	0x3d625f3a	0.055266596
212	0x3c66a783	0.014078024
213	0xbe106dae	-0.1410434
214	0x3d064efb	0.032790165
215	0x3d18cc18	0.037304014
216	0xbdc36f3e	-0.09542702
217	0xbd889e88	-0.066708624
218	0xbdd5eb7c	-0.10445306
219	0xbca48fc4	-0.020088084
220	0xbdde4051	-0.10852111
221	0xbe132b9f	-0.14372109
222	0xbded32c1	-0.11581946
223	0xbd575d61	-0.052579287
224	0xbc94dcd6	-0.018171709
225	0xbb6ca710	-0.003611032
226	0xbdfc545f	-0.1232078
227	0xbdf54063	-0.119751714
228	0x3dd251bc	0.10269496
229	0x3d32add6	0.043622814
230	0x3e043ad5	0.12913068
231	0x3d16264d	0.03665762
232	0x3d964975	0.073382296
233	0x3c8f1802	0.017467503
234	0x3d55ebd8	0.05222687
235	0xbd39cf88	-0.045363933
236	0x3c516f7c	0.012782928
237	0x3d8f98a3	0.07011535
238	0x3cd4dda9	0.025984602
239	0x3e04ff29	0.12987961
240	0xbd0b4b2d	-0.03400724
241	0xbdb8b8c1	-0.09019614
242	0xbdb40f8d	-0.087920286
243	0xbdd31865	-0.10307387
244	0x3cd95dac	0.026533924
245	0x3d2ae57b	0.041722756
246	0x3d8673b9	0.06565041
247	0xbdaea44a	-0.085274294
248	0x3d869c55	0.06572787
249	0xbd53d462	-0.051716216
250	0x3d576998	0.052590936
251	0x3d923796	0.071395084
252	0xbdbf382c	-0.09336886
253	0x3d87b9f9	0.06627268
254	0xbcfd5329	-0.030923443
255	0x3dc518d2	0.09623875

bias f4 [256]
0	0x3daeda53	0.08537736
1	0xbcea6799	-0.028613852
2	0x3db17a45	0.08665899
3	0x3baf6a07	0.0053532156
4	0x3c32e79b	0.010919477
5	0x3cb1c038	0.021698102
6	0x3d3e4b2f	0.04645842
7	0xbdc6fb11	-0.09715856
8	0x3cf0cbbc	0.029394023
9	0xbc6b3c3a	-0.014357621
10	0xbd7ce54b	-0.06174211
11	0xbe0cafdc	-0.1373896
12	0xbe03fd66	-0.12889633
13	0xbda7affd	-0.08187864
14	0xbe061e96	-0.13097605
15	0xbd7f03d4	-0.06225951
16	0xbd8d4e96	-0.06899755
17	0xbd12ac1f	-0.03580868
18	0xbe16c418	-0.14723241
19	0xbd65e89e	-0.056130044
20	0xbaf5a8ad	-0.0018742286
21	0xbdeabe11	-0.114620335
22	0x3c1f126e	0.009708984
23	0xbbcb48b6	-0.006203736
24	0xbd0b9930	-0.034081638
25	0xbd947b15	-0.072500385
26	0xbda18960	-0.0788753
27	0xbbae0c44	-0.005311521
28	0xbd5c05f8	-0.05371663
29	0xbdb50609	-0.08839042
30	0xbd787374	-0.06065698
31	0x3bf751e1	0.0075476025
32	0x3cfb9516	0.030710738
33	0xbe031767	-0.12801896
34	0xbdb01b69	-0.08598978
35	0xbad3ee4b	-0.0016169039
36	0xbd84e545	-0.06489042
37	0xbd49ff72	-0.049315877
38	0xbe0a1ba6	-0.1348711
39	0xbd08c58f	-0.03339153
40	0xbdb20fff	-0.08694457
41	0xbc8970cf	-0.016777424
42	0xbc50fbd5	-0.012755354
43	0x3d15da7d	0.03658532
44	0x3cab4ec2	0.020911578
45	0xbdb4de2c	-0.088314384
46	0xbdd19462	-0.1023338
47	0xbd741b5f	-0.059596416
48	0xbca36f29	-0.019950466
49	0xbd23f588	-0.04002908
50	0xbd491d8d	-0.049100447
51	0xbc272a57	-0.010202966
52	0xbda5511d	-0.08072112
53	0x3d341444	0.04396464
54	0xbcdce08f	-0.026962547
55	0xbd2f6cc5	-0.04282834
56	0xbd183c74	-0.037167028
57	0xbdc786c0	-0.097424984
58	0xbd0e0eed	-0.034682203
59	0xbe1f18f2	-0.1553686
60	0x3d274098	0.040833086
61	0x3d96c9ee	0.07362734
62	0xbdbfc8f3	-0.093645
63	0xbdf57621	-0.11985422
64	0xbdd1b352	-0.10239281
65	0x3c9acce3	0.018896526
66	0xbe0d51c7	-0.13800727
67	0xbcb2c851	-0.021824034
68	0x3d0a4359	0.033755634
69	0xbb160b61	-0.0022894966
70	0xbd8fe3ab	-0.07025846
71	0xbcbc19c0	-0.022961497
72	0xbd93ab09	-0.07210357
73	0xbd656d49	-0.056012426
74	0xbd05a9c3	-0.0326326
75	0x3c8be729	0.017078
76	0xbddf59be	-0.10905789
77	0xb9e226e3	-0.00043135052
78	0xbb59976e	-0.0033201831
79	0xbd2f7878	-0.042839497
80	0xbce3f1f6	-0.027825337
81	0xbd3800d5	-0.04492267
82	0xbd0cb9e1	-0.034356955
83	0xbe00e179	-0.12586011
84	0xbabcde06	-0.001440943
85	0xbda77396	-0.08176343
86	0xbd8c8c48	-0.06862694
87	0xbe12437b	-0.14283554
88	0xbe1ddf4e	-0.15417215
89	0xbddf7bcf	-0.109122865
90	0xbbea3905	-0.0071479105
91	0x3c7de6f1	0.015496955
92	0xbd56aeec	-0.052412912
93	0xbceefcfd	-0.029173369
94	0x3b08a573	0.0020850569
95	0xbbc18e55	-0.00590686
96	0xbddf798e	-0.109118566
97	0xbd2edeed	-0.042693067
98	0x3ce4b948	0.02792038
99	0xbdab3e5f	-0.08361506
100	0xbdbe41f6	-0.09289925
101	0xbdb33864	-0.0875099
102	0x3c819f5e	0.015823063
103	0xbbcfe607	-0.00634456
104	0x3a9600e8	0.0011444362
105	0x3bbf6c41	0.0058417623
106	0x3ca440ba	0.020050395
107	0xbd54a9e6	-0.05191984
108	0x3c028bf4	0.007967938
109	0xbda342b0	-0.07971704
110	0xbd56c675	-0.052435357
111	0xbd5536b3	-0.05205412
112	0xbde7053b	-0.112802945
113	0xbd091633	-0.033468436
114	0xbde6a686	-0.112622306
115	0xbd62b4e4	-0.055348292
116	0xbdd93dc1	-0.10607482
117	0x3d1e7fed	0.03869622
118	0xbdde2b62	-0.10848118
119	0xbd118891	-0.03553063
120	0xbdfc43b9	-0.123176046
121	0xbe101dee	-0.14073917
122	0xbe148f63	-0.14507823
123	0x3dd93551	0.106058724
124	0x3d2821c7	0.041047838
125	0xbc2778ee	-0.010221703
126	0x3cb66ab3	0.022267675
127	0x3d2942f0	0.041323602
128	0xbaf1bf6b	-0.0018443888
129	0xbd79eaa4	-0.061014786
130	0x3cf4c765	0.029880235
131	0x3cc4a7a7	0.024005724
132	0xbdbe01d2	-0.09277691
133	0xbca92979	-0.020649659
134	0xbce2f712	-0.027705703
135	0xbd64679d	-0.055762876
136	0xbd6d6dd9	-0.057966087
137	0xbc7fc9a1	-0.015612037
138	0x3dbc2202	0.09186174
139	0xbe034d2d	-0.12822409
140	0xbc13328c	-0.008984219
141	0xbdf65cd5	-0.12029425
142	0xbcc41b87	-0.023938907
143	0xbb47c3e7	-0.0030481757
144	0x3d320b71	0.043467943
145	0xbe05f9c9	-0.13083567
146	0x3ca7799d	0.020443732
147	0xbd9c63af	-0.07636201
148	0xbbf6662d	-0.0075195045
149	0x3c84f4c6	0.016229998
150	0xbd54e727	-0.051978257
151	0xbe14a6c7	-0.14516746
152	0xbdb4f5dd	-0.08835957
153	0xbe068cc9	-0.13139643
154	0xbd07ae42	-0.03312517
155	0xbdd1db5c	-0.102469176
156	0x3d3404eb	0.043950003
157	0xbd665a31	-0.056238357
158	0xbd6a5f09	-0.05721954
159	0xbe111dee	-0.14171574
160	0xbd6aa711	-0.057288233
161	0xbe0ff119	-0.14056815
162	0xbddf5339	-0.10904545
163	0xbd60435c	-0.05475174
164	0xbd934fe0	-0.07192969
165	0xbdf4c0a0	-0.11950803
166	0xbde5f1a9	-0.11227734
167	0xba1d73ed	-0.0006006349
168	0xbd71540d	-0.058918048
169	0xbd51940d	-0.051166583
170	0xbd11bd96	-0.035581194
171	0xbd2dd1fe	-0.042436592
172	0xbd8cc5e8	-0.06873685
173	0xbd6a5aec	-0.057215616
174	0xbd70f89f	-0.058830854
175	0xbdfb4d9a	-0.12270661
176	0x3cecc7ef	0.02890393
177	0x3b92cc00	0.004479885
178	0x3d1b3de1	0.03790081
179	0xbd9819c9	-0.07426793
180	0xbd08a083	-0.0333562
181	0xbdf5bf16	-0.119993374
182	0xbe0e7754	-0.13912708
183	0xbdfc4903	-0.123186134
184	0x3b7a60fa	0.0038204775
185	0xbd5fde38	-0.054655284
186	0xbdde0018	-0.10839862
187	0xbd6257da	-0.055259563
188	0xbdcf5dd0	-0.10125315
189	0xbe1ccac4	-0.15311724
190	0xbd08b1a6	-0.033372544
191	0xbd45bd2f	-0.048276123
192	0xbdadbfbb	-0.08483835
193	0xbda5f0b8	-0.08102554
194	0xbc838563	-0.016054815
195	0xbd8a1a61	-0.067433126
196	0xbdf673bf	-0.120337956
197	0xbc418656	-0.011811813
198	0xbd9f9a43	-0.07793095
199	0xbe023dfd	-0.12718959
200	0xbd2b7aa9	-0.041865025
201	0xbdbf9c94	-0.09356037
202	0xbd2d2e2b	-0.042280357
203	0x3d0ff1f8	0.03514287
204	0xbdb9a820	-0.090652704
205	0xbd7bc2f5	-0.061465222
206	0xbd001b64	-0.03127612
207	0xbdbe0f12	-0.09280218
208	0xbdee0ede	-0.116239294
209	0xbdea3690	-0.11436188
210	0x3d339872	0.043846555
211	0x3ca11f59	0.019668268
212	0xbb8b4e78	-0.0042512976
213	0xbcfe9b9d	-0.031080062
214	0xbc099e5d	-0.008399573
215	0xbdeec232	-0.116581336
216	0xbdebb384	-0.11508849
217	0xbd86f35e	-0.06589387
218	0xbd965fac	-0.07342467
219	0xbdd35524	-0.10318974
220	0xbdfb0c81	-0.12258244
221	0x3ceb80a8	0.028747872
222	0xbddaff2e	-0.10693203
223	0xbd2d0882	-0.04224444
224	0xbdab23bc	-0.08356425
225	0x3bd8ca36	0.0066159023
226	0x3e05c477	0.13063227
227	0xbc9935c8	-0.018702403
228	0xbd72615f	-0.05917489
229	0x3d3269eb	0.043558042
230	0x3d534f10	0.05158907
231	0xbe134e8e	-0.14385435
232	0x3c978a1a	0.01849847
233	0xbd37ec8e	-0.04490333
234	0xbde51b75	-0.11186878
235	0xbde318d8	-0.11088723
236	0xbcb2a994	-0.021809377
237	0x3d3ded35	0.046368796
238	0xbbb0ec33	-0.005399251
239	0xbc8ee93d	-0.017445201
240	0xbd7a1296	-0.06105288
241	0xbd395ff1	-0.045257512
242	0x3dfec4f8	0.124399126
243	0xbcfb49ac	-0.030674778
244	0xbdb4e278	-0.08832258
245	0xbc59e15f	-0.013298362
246	0xbe040d7a	-0.12895766
247	0xbd3c1a53	-0.045923542
248	0xbdc41915	-0.095750965
249	0xbd34d9d7	-0.04415306
250	0xbdf6580f	-0.120285146
251	0x3d1870bc	0.037216887
252	0x3c48bf97	0.01225271
253	0xbd80a83a	-0.06282087
254	0x3e1f5b02	0.1556206
255	0x3db67f1e	0.089109644
